scene_embedding_epoch_80000.pth (torch, 708208 bytes, 8 tensors)

object_encoder.0.weight f4 [256, 518]
000000 3f f8 bf bc 5a b7 dd 3c a8 54 36 3c 5b 32 21 3d
       -0.023433803 0.027064968 0.011128582 0.039354663
000010 4b e8 eb bc d6 75 11 3d 8d 5e 15 bd 49 29 9c bc
       -0.02879729 0.035512768 -0.036467124 -0.019062655
000020 76 0c 08 bd 97 bf e4 bb d9 9a 34 bb a7 91 b1 3c
       -0.03321501 -0.006980847 -0.0027558117 0.021675898
000030 cc d8 0d 3d f5 a8 36 bd c4 50 03 3d bd be 18 3d
       0.03463058 -0.044594724 0.032059446 0.037291277
000040 42 65 ec 3c ca 6b 79 bc 68 55 1e 3d d0 f0 f5 3b
       0.028856877 -0.015223453 0.03865567 0.0075055137
000050 16 2e 0b bd e3 14 31 3c 8b e1 67 3a 85 45 14 3c
       -0.033979498 0.010808202 0.0008845559 0.009049778
000060 19 e1 87 3b af 9f eb 3c 4c 98 98 3c e0 54 1b bc
       0.004146707 0.028762667 0.018627308 -0.009480685
000070 9d 05 6f 3c 9d d8 d5 3c 46 13 ea bc e3 4b f0 3c
       0.014588741 0.026104266 -0.028573643 0.02933306
000080 cf 74 7c bc f5 a1 eb bc fd ae f7 3b bc b7 14 bd
       -0.015408709 -0.02876375 0.007558702 -0.036308035
000090 78 31 32 3b 68 d2 d0 bc 6d 1c 96 3c c7 a0 f5 3b
       0.002719013 -0.025490955 0.018324101 0.007495973
0000a0 86 c7 ff 3c ee 98 25 3d 1f bb 83 bc ed cc 6e bb
       0.03122307 0.04042905 -0.016080437 -0.0036438063
0000b0 17 60 2f bd ee 65 1b 3d f2 84 10 bd 24 ba 59 3c
       -0.042816248 0.037939005 -0.035283037 0.013289008
0000c0 80 d2 32 3d 96 18 cc 3c 21 22 af 3b 9f 98 54 3c
       0.04365778 0.024914067 0.0053446447 0.012975841
0000d0 55 53 63 3c 95 6d ba 3c 5e 15 c5 bc 02 58 05 bd
       0.013874848 0.02275733 -0.02405804 -0.032554634
0000e0 fa b0 5d 39 cf 87 2a bd ca 40 02 3b 7f 7f 37 bd
       0.00021142131 -0.041633423 0.0019875043 -0.044799324
0000f0 e9 df 3d bd f6 e7 1a 3d e2 43 01 3d b8 30 ba 3a
       -0.046356115 0.03781887 0.03155888 0.0014205193
000100 7a 0b 07 bd e5 3f 20 bd bb d7 6d bc 3a aa 25 bd
       -0.03296993 -0.039123435 -0.014516766 -0.040445544
000110 86 e5 2c 3d dd 67 8c 3c 8a fa ae bc 7e 4c eb bc
       0.042211078 0.01713937 -0.0213597 -0.028722998
000120 aa 92 1c bd 6d 1d b0 3b 98 36 42 bd 18 ad 45 3c
       -0.038225807 0.0053746016 -0.047415346 0.012065195
000130 e3 a5 2f bc ac ed 6f 3c 73 a7 f5 3c 4e 9f 02 3d
       -0.010720703 0.014644068 0.029987073 0.031890206
000140 ea 35 88 bc c9 22 05 bd 21 8d 17 bd 18 1c 05 bd
       -0.01662727 -0.032503877 -0.036999825 -0.032497495
000150 3c ca 55 ba 14 f6 e8 3c f3 b5 36 bd 3a 29 bb 3c
       -0.00081554404 0.028437652 -0.044607114 0.022846807
000160 0d 4e 33 bd a5 2b 90 bb 25 24 00 3d 21 0b c6 3c
       -0.043775607 -0.004399734 0.03128447 0.024175229
000170 93 e7 0e bd 98 42 b2 3c 9e 03 26 bd 73 b4 2a 3d
       -0.034888815 0.02176027 -0.040530793 0.041675996
000180 f7 80 12 bd 4f cd 2c 3d 60 86 ca bc 9a f4 1b bd
       -0.03576752 0.042187985 -0.024722278 -0.038075067
000190 1b c6 ba 3c 67 dd a3 bc f8 f9 18 3d 8a 3e ca 3a
       0.022799542 -0.020003034 0.037347764 0.0015430015
0001a0 e6 93 38 3d 71 44 10 3c 18 fd 08 3c 36 fd da bc
       0.045062922 0.00880538 0.0083611235 -0.026732069
0001b0 9e 4d 29 bb 26 16 e2 3b 8d ed 1b bc ce 15 92 3c
       -0.0025833617 0.006899613 -0.009517086 0.017832663
0001c0 9a 39 d9 bc 2c b0 13 3c d8 39 b8 bc 8a 82 49 bd
       -0.026516724 0.009014171 -0.02248852 -0.049196757
0001d0 53 05 fb 3c bd 7b df bb 73 33 b3 3c 40 a5 0c bd
       0.030642187 -0.0068201707 0.021875119 -0.034337282
0001e0 0c ce 34 3d bd b6 ed 3c fc 9c 17 bd 69 7d 6b bc
       0.044141814 0.0290178 -0.037014946 -0.014373162
0001f0 a3 11 01 3d c6 8c 8e 3c e1 e4 db 3c 43 e5 07 bd
       0.03151096 0.01740111 0.026842536 -0.033177625
000200 fe e1 8a 3b ac 84 0d ba d2 2c 85 bc 0b f1 22 bd
       0.004238366 -0.0005398493 -0.016256724 -0.039780658
000210 ed 20 8b bc 82 0e 95 bb 5e f3 78 3c 0e 64 99 3c
       -0.016983474 -0.0045488486 0.015194742 0.018724468
000220 fd 6d a4 bc 4e d5 04 bc d1 74 34 bc f7 90 25 3a
       -0.020071978 -0.008107496 -0.011014179 0.0006315852
000230 6f 90 03 bc 65 aa 34 bd 98 9c 0b bc 26 66 d4 3c
       -0.008030041 -0.044107813 -0.008521222 0.025927614
000240 23 dd fb 3c a3 93 0a 3d 22 ff db bc 00 f5 09 3c
       0.030745095 0.033832204 -0.026855055 0.008420229
000250 cb 19 8a 3c 7b 3c 09 3d f4 66 44 bc bd 26 bc 3c
       0.016858002 0.033504944 -0.011987437 0.02296769
000260 d0 91 5d bc 39 47 10 3d 04 fb 6c 3a ae 8d 0d bd
       -0.013523534 0.035224173 0.000904009 -0.034558944
000270 87 94 ad bc 3a c4 5d 3c 8b b9 b5 bc 37 9f b9 bc
       -0.021188987 0.013535554 -0.0221832 -0.022658927
000280 c8 21 37 3d f8 25 b0 bb 89 fe dd 3c d5 be 0c 3d
       0.04470995 -0.00537562 0.02709891 0.03436168
000290 5e e6 63 bb a9 2f 84 bc 46 e5 8c bc 26 55 aa b5
       -0.003477476 -0.016136007 -0.01719917 -1.2690768e-06
0002a0 a2 fe 17 bd 6f af 60 bc e1 ce ed 3c a6 f1 4c 3c
       -0.03710807 -0.013713702 0.029029312 0.012508785
0002b0 3a ac 18 3d c8 d8 3e bc 8f 14 9f 3c 0c c1 a6 bc
       0.037273623 -0.011648364 0.019418983 -0.020355724
0002c0 1a ee 19 bd 3a de 24 3c 24 6b 26 3d be e1 dc bb
       -0.037580587 0.010062749 0.04062952 -0.0067407778
0002d0 34 53 63 bc bf bd 86 bc 48 2a 6a 3c 35 fd 82 3c
       -0.013874818 -0.0164479 0.014292307 0.01598988
0002e0 8b 41 0b 3d 23 b8 ba bc c0 16 c1 bc ed c3 c4 3b
       0.033998054 -0.022792881 -0.023570418 0.0060048015
0002f0 fd 23 3b 3d f5 fc 55 bb 68 33 3e 3c 90 b4 f1 bc
       0.045688618 -0.0032651995 0.011608936 -0.029505044
000300 37 23 e5 bc 0b 76 82 bc 7f 59 20 3d 46 5f dc 3b
       -0.027970893 -0.015925428 0.03914785 0.0067252247
000310 9a b6 20 bd 64 be 08 bd a6 ed 27 3d 32 69 83 bb
       -0.039236642 -0.033384696 0.040998124 -0.004010343
000320 26 90 8d bc 1f a6 1a bc a1 eb 1f 3d 23 71 36 3d
       -0.01728065 -0.00943902 0.039043073 0.04454149
000330 54 87 af bc 00 51 20 3c fa c0 24 bd d9 a5 ef 3b
       -0.021426834 0.009784937 -0.0402231 0.0073134718
000340 ef 4e bf 3b 98 f7 9f 3b 7e ae 0c 3d a4 ef 2f bd
       0.005838267 0.0048818104 0.034346096 -0.04295315
000350 5b ca 0a 3d 66 5c 3a bd bd a1 02 3d d1 8f f7 bc
       0.033884387 -0.045498274 0.031892527 -0.030219944
000360 e9 50 20 3d cf c2 fb bc dc 7a a4 3c 52 64 1e 3d
       0.039139662 -0.03073254 0.020078115 0.03866989
000370 d5 b7 26 3d db 1a 35 bc 76 4f 18 bd 15 c8 1b 3d
       0.04070266 -0.011053766 -0.037185155 0.03803261
000380 4d 08 00 3d 91 b9 c0 3c d2 a9 f8 3c 52 f0 dd bb
       0.031257916 0.023525985 0.030354414 -0.006773033
000390 4a cf ab ba 65 ba 0a 3d c4 8a 6f bb a5 f0 9c bc
       -0.0013108042 0.033869166 -0.0036551217 -0.019157717
0003a0 f3 02 a5 3b 7d a6 ec 3b 3b ff e0 3b 6c 6c 40 3d
       0.005035752 0.0072219954 0.0068663633 0.0469784
0003b0 1e 95 ff 3b c3 bb 07 bc 0f 62 1b bd 9f b2 13 bd
       0.0077997586 -0.008284512 -0.037935313 -0.03605902
0003c0 95 6a d8 bc 78 6f 0c bd 37 6a 18 bd c4 e8 91 bb
       -0.02641801 -0.034285992 -0.03721067 -0.0044527967
0003d0 ea d9 12 bd 30 e5 1f 3d d4 86 25 3c 89 cd c4 bc
       -0.03585235 0.03903693 0.010102946 -0.024023788
0003e0 39 91 0c 3d 2a 02 0d 3d 46 8a 13 3d ec 1d d5 3b
       0.034318183 0.034425892 0.03602054 0.006503811
0003f0 03 1a 05 bc 47 a2 20 bd dc 6d f8 bc a0 ab 15 bd
       -0.008123877 -0.03921726 -0.030325823 -0.036540627

object_encoder.0.bias f4 [256]
000000 47 c8 13 3c 3d 52 a4 3c 98 1b c7 3a 4b ce 20 bd
       0.009019918 0.020058746 0.0015190719 -0.039259236
000010 1f ff 82 3c fa bb fe 3c 4f 30 c0 3a 7f 3c 67 bc
       0.015990792 0.031095494 0.0014662835 -0.0141135445
000020 5d 44 39 bd 5e 4d 25 bd c0 4c 7a bc ff 29 47 3c
       -0.045231212 -0.040356986 -0.015277088 0.012156009
000030 e3 fd 72 3c b8 92 13 bd 4d 3d 0d 3b 51 e0 f8 3c
       0.014831039 -0.036028594 0.002155143 0.0303804
000040 45 47 51 bb d4 5a 93 bb 0e 11 2a bc 4f c5 3d bd
       -0.003193335 -0.0044969115 -0.010380043 -0.046330746
000050 38 0a 75 3c 76 62 0a bd bc ca 70 3b 63 4d 46 3c
       0.01495605 -0.033785306 0.0036741933 0.012103411
000060 b4 ca 06 bc f3 53 1f bd 4d 9a 8c 3c 95 a2 2a 3b
       -0.008227039 -0.03889842 0.01716342 0.0026036848
000070 38 87 db 3c c7 8f a4 3c dd ab 13 bc 1f 41 2d bd
       0.026797876 0.02008809 -0.009013143 -0.042298432
000080 d3 71 eb 3b 6c e6 e0 ba 2e b5 fe 3c 7b 4a 28 bd
       0.0071851998 -0.0017158515 0.031092253 -0.041086655
000090 88 05 bd 3a 0c 37 e3 3c 0f b8 cf bc a6 4e 00 bd
       0.0014421204 0.02773621 -0.02535632 -0.031325005
0000a0 0f 66 e7 bc e0 03 ef 3c da 25 2f bd 2b 21 3d bd
       -0.028246908 0.029176652 -0.042760707 -0.04617421
0000b0 2a 1f 12 bd 82 f7 28 3c e7 c6 81 3b 7e e2 b2 3c
       -0.03567425 0.010312917 0.0039604786 0.021836516
0000c0 18 ab 73 bb ba b5 a7 3b de 88 00 bb 21 30 55 bb
       -0.0037180837 0.005118099 -0.001961283 -0.0032529908
0000d0 e5 7e ba bb da 55 45 bc a6 8d cd bc 9f 24 5f bd
       -0.0056913965 -0.012044394 -0.025091957 -0.054478284
0000e0 32 86 37 3c f0 65 21 3c e8 16 c5 3c f9 9c 3c bd
       0.011201428 0.009850964 0.024058774 -0.04604814
0000f0 41 6f 7c 3c 57 64 06 bd ba 66 20 bd b2 8f eb 3c
       0.015407384 -0.032810535 -0.039160468 0.028755043
000100 fd 93 a1 3c 59 a3 3e bd bb e3 01 bd 0b 70 7f 3c
       0.019723887 -0.0465425 -0.03171132 0.015590678
000110 b2 b3 a7 3c 79 d0 fe bc 24 21 c2 3c 27 e9 51 bd
       0.020471428 -0.031105267 0.023697443 -0.051247742
000120 0f e1 c5 bc ee e9 73 bd 0e c0 f3 39 18 a0 f8 3b
       -0.024155168 -0.059549265 0.00046491664 0.007587444
000130 9e 22 fc bb 5e 6a 74 bd 26 cd c6 3c 79 f8 b5 bc
       -0.0076945564 -0.059671752 0.024267744 -0.022213208
000140 e3 54 e5 3c c5 99 03 3c 38 be 7b bc a1 74 b6 bb
       0.027994579 0.008032267 -0.015365176 -0.0055681025
000150 f6 cc 1d 3b cd 5a c2 39 84 f4 92 bc 03 b0 20 bc
       0.0024078465 0.00037070215 -0.01793886 -0.009807589
000160 e6 d4 69 3c a4 81 f9 ba 21 f9 6c 3c 24 aa 8f bc
       0.01427195 -0.0019035828 0.014463694 -0.017537184
000170 52 12 62 bc aa 9a 1b bc 8f 13 00 3d 92 dd 83 bc
       -0.013798313 -0.009497324 0.031268653 -0.016096864
000180 56 aa 02 bd d7 11 0a 3c 66 94 8f 3c 36 ec c3 bb
       -0.031900726 0.008427105 0.017526817 -0.0059790863
000190 5c 9e 85 bb 08 16 bb 3c c5 c3 39 bd 95 3b 01 bd
       -0.004077716 0.022837654 -0.045352716 -0.031550962
0001a0 c2 06 0a 3c 07 c2 29 3c 66 40 64 3c 65 11 4c 3c
       0.008424463 0.010361201 0.013931369 0.012455319
0001b0 23 73 96 3c 33 46 5f 3c 97 a6 18 bd 81 4b 74 bd
       0.018365448 0.013627577 -0.037268247 -0.05964232
0001c0 f5 e5 38 bc 0c b7 f9 3b 76 c1 d6 3c d5 31 30 bb
       -0.011285295 0.007620698 0.026215296 -0.002688517
0001d0 fb cc ba 3c b8 be e0 3c 2e 82 f1 3c 66 59 27 3c
       0.02280282 0.027434692 0.02948102 0.010214185
0001e0 2f ed e7 3c 8e 44 a2 3c da 8a c2 3b 6b 59 db bb
       0.02831134 0.01980808 0.0059369626 -0.006694009
0001f0 d7 1e aa bb e4 c1 58 bd 12 bd f8 bc 8c 85 a4 3b
       -0.0051916647 -0.052919284 -0.030363593 0.005020803
000200 3b 6c 2d bd b1 63 b9 bc ef b3 6c 3c ae 76 c5 3c
       -0.042339545 -0.022630544 0.014447196 0.024104442
000210 85 b4 35 bd 86 87 de bc f4 ac 24 bd 62 02 d5 bc
       -0.04436161 -0.027164232 -0.040204003 -0.026002113
000220 bb 68 0e bd 12 ee fd 3c 3e 70 4d bd 88 84 6e 3c
       -0.034767848 0.03099731 -0.05015587 0.014557965
000230 f0 b2 b0 3c 29 5d dd 3b 0b 85 35 3c c1 ae 38 bd
       0.021569699 0.0067554903 0.011079083 -0.045088533
000240 52 08 06 bd 10 d1 ae 3b 15 5f 83 bc 6a ff ae bb
       -0.03272278 0.005334981 -0.01603655 -0.0053405063
000250 5c 88 db bb cf a3 e0 3b 22 e2 1b bc ba 97 77 bb
       -0.006699605 0.006855465 -0.0095143635 -0.0037779645
000260 24 46 33 bd 09 02 d4 ba 9c b7 81 bc cb d6 22 bd
       -0.043768063 -0.0016174923 -0.015834622 -0.039755624
000270 ae 2b 64 3c 60 55 02 bd 65 28 1b bd 25 11 83 3c
       0.01392643 -0.0318197 -0.03788032 0.015999386
000280 7b 7a 2b bb 38 aa c8 bc e6 97 1e bc da 75 0a bd
       -0.0026165533 -0.02449523 -0.00967977 -0.0338038
000290 f8 f1 dd 3c 4d a0 c0 3c c9 49 0d 3d 47 3d 03 bb
       0.027092919 0.023513937 0.034494195 -0.0020025538
0002a0 7a fb 57 bd 77 1f c3 3a d1 fe c6 3c 66 b7 5c bc
       -0.05273006 0.0014886697 0.024291428 -0.01347146
0002b0 1f 57 04 3d c8 f9 f7 3b c4 1f 2f bd 54 7c 0a 3b
       0.032309648 0.007567618 -0.042754903 0.0021131234
0002c0 d6 0b 19 3c c3 3c 3d bd 8d 34 28 bd 62 9e fa bc
       0.009341201 -0.046200525 -0.04106574 -0.030593101
0002d0 c5 87 17 bd 16 29 ae 3c 1f a2 6f bb 29 6a 20 3d
       -0.036994714 0.021259826 -0.0036565138 0.039163742
0002e0 9f 03 4b bd 05 0c d3 bc 22 f8 02 3d 98 1b 01 3d
       -0.049564 -0.025762567 0.03197492 0.031520456
0002f0 82 c7 0e 3c cc 08 ab 3b 7e 01 33 3d 8e 75 21 bd
       0.008714559 0.0052195545 0.043702595 -0.03941875
000300 1b 95 2a bc 48 44 8c 3c ac df 6d bd db c1 f4 3c
       -0.010411526 0.017122403 -0.05807464 0.029877594
000310 78 8b be 3c c2 e3 e3 3b 80 f4 cc bc 92 b8 f2 3c
       0.023259863 0.006954641 -0.02501893 0.029629026
000320 ea 18 97 bd 57 3f 50 bd 32 03 0e bd 73 47 3f bd
       -0.07377799 -0.050841656 -0.034671016 -0.046699
000330 e1 12 0b bd 7d de bc 3b d4 ed 24 3c ab a1 b7 bc
       -0.03395355 0.0057638274 0.010066468 -0.022415956
000340 5d 05 45 bd a2 7b a8 bc 38 36 8c 3c e3 61 82 bc
       -0.048100818 -0.020566765 0.017115697 -0.015915817
000350 1e b7 1d bd 47 96 9e 3c 2b f5 ce 3c 25 d7 d7 bc
       -0.038504712 0.019358767 0.02526339 -0.026347706
000360 6c 90 95 bc d3 71 2f bd b4 86 d9 3c 4e 3b 1a bd
       -0.018257342 -0.04283316 0.02655349 -0.037654214
000370 a2 77 13 bd 0d d8 37 bd c4 16 d2 bc 31 a9 1b bd
       -0.036002763 -0.044883776 -0.025645621 -0.03800315
000380 c4 82 1d 3d 62 58 55 3c 6e 3a b1 3c 90 4b 38 bc
       0.038454786 0.01302156 0.021634307 -0.011248484
000390 03 13 88 bb be c3 29 bd ae 9b 28 bd 66 36 d3 bc
       -0.004152657 -0.04144644 -0.041164093 -0.025782775
0003a0 aa 6e 1b 3c 41 27 ec bc 8e 78 a6 3c bd 5c 43 3c
       0.009486834 -0.028827311 0.020321157 0.011923966
0003b0 ba 0b f7 bc f0 04 f6 3c b2 48 f4 3b 6d 47 ca bb
       -0.030156959 0.030031651 0.007454955 -0.0061730654
0003c0 5a 15 c5 bc f3 f2 25 3c 53 03 bc ba 84 86 10 bd
       -0.024058033 0.010128724 -0.0014344252 -0.035284534
0003d0 bb f0 63 bc 53 03 a8 3c 76 be 16 3d 35 d1 83 3c
       -0.013912375 0.020509398 0.03680273 0.016090969
0003e0 65 59 4e bd 38 d0 41 3c 00 7f bd bc f6 0b 97 3a
       -0.050378222 0.011829428 -0.023131847 0.001152395
0003f0 8a f4 a8 3b a5 b3 03 bd e2 2c e7 bb 60 fa c7 3b
       0.0051561045 -0.032153744 -0.007054911 0.006102845

object_encoder.2.weight f4 [128, 256]
000000 b4 21 94 bb 7f dd d8 3b 57 91 01 bd 40 3e 49 3d
       -0.0045206193 0.0066182013 -0.031632748 0.04913163
000010 68 f3 4b bb 60 16 55 bd e0 17 a9 3b 5b 3d 8b 3d
       -0.0031120423 -0.05202329 0.005160317 0.06798812
000020 67 38 4b 3d 3a 93 5e 3d 20 bd 2a bb e4 55 3b 3d
       0.049614336 0.054339625 -0.0026052669 0.04573621
000030 a7 c2 d4 bc 18 8f 0a bd f3 a4 57 bd 81 79 2c 3d
       -0.025971724 -0.03382787 -0.052647542 0.042108063
000040 e1 41 3c 3c c5 5b a9 3b ea 04 0b 3d bd 53 4c bd
       0.011490316 0.0051684105 0.033940233 -0.049884547
000050 22 7c 58 3d 80 1a bf ba fa 71 ab 3b ff 96 ec bb
       0.052852757 -0.0014580041 0.005232093 -0.0072201486
000060 b2 69 4d bd c4 ed d7 bb 93 0e 13 bd 3d 60 45 bd
       -0.050149627 -0.006589623 -0.03590257 -0.048187483
000070 c2 d3 33 3d c1 6d 34 bd 5d f5 96 bc ea 62 98 3c
       0.04390312 -0.044049982 -0.018427545 0.018601853
000080 fa 57 70 bd 6c ca 35 3d 80 b4 20 bd d5 fb 35 3d
       -0.05867765 0.044382498 -0.03923464 0.04442962
000090 65 5f 61 3d fc 77 64 3d 7e 4c 57 bd 0f 0d 27 3d
       0.055022616 0.05577849 -0.052563183 0.040783938
0000a0 21 05 67 3d f6 9a 4b bd ea e8 1a bd 47 0f 5d bd
       0.056401376 -0.04970833 -0.03781978 -0.053969648
0000b0 47 62 d8 3b 22 db 32 bc 03 76 9f bb 27 53 0c 3d
       0.0066035124 -0.010916503 -0.004866363 0.034258988
0000c0 4c db 2a bd 8e 66 2e bd c6 a7 66 bd f6 83 7d bd
       -0.041713044 -0.042578273 -0.056312345 -0.061893426
0000d0 66 fe 1b 3d 26 41 73 3d 46 d7 92 3b 43 13 01 bd
       0.03808441 0.059388302 0.004481229 -0.03151251
0000e0 d5 b0 a9 3c 39 03 41 bd c5 ae 9c 3b cd 86 22 bd
       0.020714203 -0.047122214 0.0047815763 -0.039679337
0000f0 f5 3e 57 bd 66 a2 7e bd f4 96 ba bc 70 f9 e6 bc
       -0.052550275 -0.062166594 -0.022777058 -0.028195113
000100 cb 3e af 3c 21 cf 71 bd 30 4e 8a 3b eb 2a 82 bd
       0.021392247 -0.059035424 0.0042207465 -0.06355842
000110 d4 35 04 bd 54 43 26 bd c0 5b 02 3d dd 2e 6e bc
       -0.032277897 -0.040591553 0.03182578 -0.01453754
000120 0b ae 0c 3c fa dc 50 3d b6 e8 91 3c 6b 2b 6e bd
       0.008586417 0.05099199 0.01781116 -0.058146875
000130 9a f4 04 bd f9 d5 b6 3c 30 99 58 bd 55 ef 54 bd
       -0.032459833 0.022318827 -0.052880466 -0.051986057
000140 d4 e8 0c bd a6 3d c8 3b d0 42 f6 bb cd 1a 28 bc
       -0.03440173 0.0061108647 -0.007515289 -0.010260296
000150 f2 3c a5 bc de f7 15 bd 3d 69 c5 bc 96 3c 30 bd
       -0.020170663 -0.036613338 -0.024098033 -0.04302653
000160 e7 84 1a 3d 14 8d 9a 3b 1d 9e 60 3d f3 61 15 bd
       0.0377244 0.004716525 0.05483829 -0.036470365
000170 16 db 52 3c c7 36 9d 3c 40 8a ca bc 54 69 31 3d
       0.012869617 0.019191159 -0.024724126 0.04331334
000180 23 a4 44 bd 1e 8d b3 3c 2c aa bc 3b 89 76 52 3d
       -0.048008095 0.021917876 0.0057575908 0.051382575
000190 b4 4e 9d 3c 87 df 56 3d c6 67 c8 bc 5f c7 38 3d
       0.019202568 0.052459266 -0.024463546 0.04511201
0001a0 c3 b2 6d 3d 85 c0 f0 bb 30 9f 2b bd 66 66 2e 3d
       0.05803181 -0.007347169 -0.04189986 0.042578124
0001b0 56 6d 90 bc a4 06 ce 3c b4 0d 23 bd 5a 36 3c bc
       -0.01763026 0.02514965 -0.03980799 -0.011487568
0001c0 fa 2b 81 3b b3 b6 bb bc 5e 9a 28 bd f2 76 a7 3a
       0.00394201 -0.022914266 -0.04116284 0.0012776537
0001d0 18 7f d8 3c 8b 7d 12 3d 54 26 21 bd 22 0a 48 3d
       0.02642779 0.03576426 -0.039343193 0.04883779
0001e0 1a 0a 85 bb cd ff f4 3c 1d 0b 5c bd 82 df 27 3d
       -0.004060042 0.029907132 -0.053721536 0.040984638
0001f0 92 55 42 3d 43 67 dd bc e7 a9 94 bb 41 a0 d6 3c
       0.047444887 -0.027026778 -0.0045368555 0.026199462
000200 00 65 97 39 42 74 41 3a 73 61 3e 3d 54 6b 54 3c
       0.00028876215 0.00073796895 0.046479654 0.012965042
000210 3b 23 96 3b 00 53 92 ba 69 d8 59 3d 5f d8 a5 3c
       0.0045818365 -0.0011163652 0.0531849 0.020244775
000220 05 33 0b bd 01 22 40 3d b2 2c 58 3d 2e 3b 28 bd
       -0.033984203 0.04690743 0.052777 -0.041072063
000230 c2 27 d3 bb db c3 c3 3b 06 84 3e bc 7f fe 01 bc
       -0.0064439485 0.0059742755 -0.0116281565 -0.007934212
000240 0b 29 49 bd fd 95 3a bd 25 01 e8 3c f9 6e 80 bd
       -0.049111407 -0.045553196 0.028320858 -0.06271166
000250 8a 50 26 bb 32 b8 70 bd bb 4a ef bc 03 30 0a bd
       -0.0025377595 -0.058769412 -0.029210439 -0.033737194
000260 2a f9 ca 3c 78 df 0b bd 37 0c 18 bd a7 a7 1c bd
       0.024777014 -0.034148663 -0.037121024 -0.038245823
000270 0a 10 8a 3c 9b 28 60 3c 58 5f e2 3c 23 ca 46 bc
       0.016853351 0.013681556 0.027633354 -0.012133154
000280 ec 2e 3c 3c 2b 7c 23 3c 4f e9 70 3a c8 74 00 3d
       0.011485796 0.009978334 0.0009190039 0.03136137
000290 3c 58 c7 3b 6d e1 6c bd a4 a9 1c bd 5b 70 85 bd
       0.0060835164 -0.05783217 -0.03824772 -0.06515571
0002a0 cb 4d 08 ba 74 65 e6 3c 9e 21 29 bd 06 15 47 3d
       -0.00051995803 0.028124548 -0.041291825 0.048604034
0002b0 b8 8f f8 3b 0f d9 68 bd 47 25 62 3c 53 f2 d9 bc
       0.007585492 -0.05684763 0.013802833 -0.026604807
0002c0 30 13 29 bd 35 e7 f9 bb 16 46 2f ba 7b 06 f0 bc
       -0.041278064 -0.007626439 -0.0006686164 -0.029299965
0002d0 d5 46 7b 3b 0d af 06 bc c8 d4 0a bc 45 6d c5 3c
       0.003834178 -0.008220446 -0.008473583 0.024099955
0002e0 ab ef ca b9 00 e4 87 bd 43 03 c9 3a 86 af 2d 3d
       -0.0003870701 -0.066352844 0.0015336055 0.04240372
0002f0 75 3b e2 bc d4 16 cd 3c 9c 49 ad bc 7c e3 cb 3c
       -0.027616242 0.0250353 -0.021153264 0.024888746
000300 b1 41 12 bc d4 e4 01 bd 5b 21 dc 3c 33 ef 69 3d
       -0.008926795 -0.031712368 0.026871374 0.057112884
000310 a4 5f 42 bd 54 b0 62 bd 17 25 12 bc 58 73 5c bc
       -0.04745449 -0.05534394 -0.008919976 -0.0134552345
000320 28 5d 96 3b 46 17 1b 3d 1e b6 40 bd d2 77 44 3c
       0.004588742 0.037863992 -0.04704868 0.011991458
000330 a4 e0 5a 3d 28 dd 40 3d 31 97 9d bc 39 b5 dd 3c
       0.05343689 0.04708591 -0.019237133 0.027063953
000340 71 96 01 3c 96 3c 2d bd 9c 78 0c bd a4 94 4a 3d
       0.007909403 -0.042294107 -0.03429471 0.04945816
000350 0f c0 02 bd cc 9a 0c 3b 30 77 5e 3d ef d7 23 3d
       -0.031921443 0.002145457 0.054312885 0.040000852
000360 51 78 04 bd d2 0d 29 bd 3a 11 54 3d 28 09 29 3d
       -0.032341305 -0.041272946 0.05177424 0.041268498
000370 4b 4e d8 bc cd 3d 55 3d 0b 3d 1c bd 10 26 5a 3d
       -0.02640452 0.05206089 -0.038144153 0.053258955
000380 cb a8 27 bd 97 46 5e 3d fc 3e 22 bd 53 b1 12 3b
       -0.040932458 0.05426654 -0.039610848 0.0022383526
000390 0e e0 47 bd bd 05 0e bc 57 43 04 3d bb 38 0f bd
       -0.04879766 -0.00866836 0.032290783 -0.03496621
0003a0 d7 c1 25 3d fb 02 f7 3c 43 5c 5e bd a6 36 8e bc
       0.040468063 0.030152788 -0.054287206 -0.017360043
0003b0 47 5c 7a bd 4a ad 9e bb 58 21 40 3c 7d 4b 60 3d
       -0.06112316 -0.004842435 0.0117267 0.05475949
0003c0 59 c5 00 3d 23 df 9e bc f6 d1 6c bb 10 b0 45 bd
       0.031438205 -0.01939351 -0.0036135889 -0.04826361
0003d0 e0 04 15 3d 52 4c b6 bc 10 30 21 bd 20 8f d4 bc
       0.036381602 -0.02225319 -0.039352477 -0.025947154
0003e0 8c aa 06 3d 8c df c9 bc 4d 63 df bb e2 9d 55 bc
       0.03287749 -0.024642728 -0.0068172575 -0.0130381305
0003f0 c7 1e 02 bc 04 70 bf bc e2 21 70 bd ba 91 4d 3d
       -0.007941908 -0.023368843 -0.058626063 0.050187804

object_encoder.2.bias f4 [128]
000000 d7 a7 df 3b 82 3e cf bb 8e 97 4f 3d 86 fe 4e bd
       0.006825428 -0.00632459 0.050681643 -0.0505357
000010 c1 ac 88 3c 10 e3 34 bd 23 11 de bc 2c ee 08 3d
       0.016683938 -0.044161856 -0.02710778 0.033430263
000020 d6 82 39 3d 25 9b cc bc d3 5b 77 bc 33 b2 13 bc
       0.04529079 -0.024976322 -0.015097576 -0.009014654
000030 c0 33 f5 3c 33 65 21 3d 1f b5 bb 3c 96 02 5a bd
       0.029931903 0.03940315 0.022913514 -0.053225122
000040 ab a7 fd bc 1f 77 2e bd 7a ee 81 3c 6f a8 c1 b9
       -0.03096374 -0.04259407 0.015860785 -0.0003693732
000050 57 29 43 3d 1f cb 36 bd af d6 a3 bc 2e e2 97 bc
       0.047646847 -0.044627305 -0.01999983 -0.018540468
000060 5f cc e6 bc b0 d7 33 bd 6c 5e 80 3d cf 9c fe 3b
       -0.028173624 -0.043906868 0.062680095 0.007770158
000070 92 ed 03 bd 6a 07 06 3d c0 77 1c bd 67 6c 71 3d
       -0.032208987 0.032721914 -0.03820014 0.05894127
000080 a1 b4 1d bd a2 50 14 bd ef af 2d bd 41 82 2d 3d
       -0.03850234 -0.03620971 -0.04240411 0.042360548
000090 9a 4c 8d 3c 15 56 41 3c 1e 97 d6 bb c9 07 61 bd
       0.01724844 0.011800309 -0.0065487763 -0.054939065
0000a0 42 40 46 3d db 90 bf bb 63 7c 85 3c 5e 80 b2 3c
       0.048401125 -0.0058461255 0.016294664 0.021789726
0000b0 9c 6b 4a bd ad 37 3f 3c c4 4d 49 bd 90 d3 a7 bb
       -0.04941903 0.011670989 -0.04914643 -0.0051216558
0000c0 10 fe fb bc a6 ef e4 3c 52 2c 5c 3c 59 13 71 bd
       -0.030760795 0.027946305 0.013438301 -0.058856342
0000d0 35 95 e7 3c ae e0 27 3c 50 3b 14 3d 01 af 17 3d
       0.02826939 0.010246439 0.036189377 0.03703213
0000e0 4c 21 94 bc db be 49 bc 84 a0 c1 3c 40 89 4a bc
       -0.018082283 -0.01231357 0.02363611 -0.0123618245
0000f0 35 45 9e 3d 62 87 e9 bc 20 0e 16 3d 6d b8 f1 bc
       0.07728044 -0.028506938 0.036634564 -0.029506886
000100 c3 59 4b 3b df be 25 bd e0 f6 45 bd 9a a3 e1 bc
       0.0031028844 -0.040465232 -0.04833114 -0.027543832
000110 67 db 3b bc 50 ea 74 3a ed c1 13 3c 82 19 ff 3c
       -0.011465884 0.00093427766 0.0090184035 0.031140093
000120 24 4c 17 bc 4f a5 0f 3d eb f5 73 bc 7b ca 26 bd
       -0.009234462 0.03506976 -0.014890174 -0.040720444
000130 05 41 5c 3d 6f b7 49 3b 8f 0f 3d bb ac 30 24 bd
       0.053772945 0.00307795 -0.0028848385 -0.04008548
000140 6b 58 f2 bc 5f 2d 78 bc 31 b7 68 bd 9e 7b 78 3c
       -0.029583177 -0.015147536 -0.05681533 0.015166191
000150 be ae a5 3c 4e bb ea 3c ee 06 41 3c 61 08 85 bd
       0.020224925 0.028653767 0.011781437 -0.06495739
000160 68 c8 95 bd 28 5a 78 3d 9d ff fc bc 16 1b d2 bb
       -0.07313615 0.060632855 -0.030883605 -0.0064119203
000170 99 e3 ea 3b d1 fd eb bb 58 a9 78 3d 0c 4f e9 3c
       0.007168245 -0.007201888 0.060708374 0.028480075
000180 25 0f 07 bd 5c c4 d2 3c ba 91 3e bc 1c 3f 39 bd
       -0.032973427 0.025728397 -0.011631424 -0.0452262
000190 bb ec 15 3d 7a 48 45 bb 80 7a 19 3d c0 61 61 bb
       0.036602717 -0.0030103014 0.03747034 -0.003439054
0001a0 ce 5c 50 bd 63 bc 4d bd e6 63 9f bc a6 13 57 3c
       -0.050869755 -0.050228488 -0.019456815 0.013127243
0001b0 a0 b0 83 bc 91 59 4f bc 3f 06 34 3d 25 cf 77 bc
       -0.016075432 -0.012655632 0.04395127 -0.015125071
0001c0 af ac 9b 3c a2 bb 24 3b 68 23 7b bd 80 93 a3 bc
       0.01900324 0.0025136252 -0.061313063 -0.019967794
0001d0 77 f5 29 bd 7f ef ef bb b4 e9 36 3c b4 e7 30 3d
       -0.04149386 -0.0073222513 0.011164118 0.04318972
0001e0 1d 98 24 3b d0 79 b5 3c 31 79 82 bc ce 16 78 3d
       0.002511508 0.022152811 -0.01592693 0.060568623
0001f0 a5 22 2a bd d4 9b df 3b 69 7c bd 3c f8 d9 2b 3d
       -0.041536946 0.006823996 0.023130612 0.041955918

scene_encoder.0.weight f4 [64, 128]
000000 b3 f6 22 ba 7f b2 d2 bc 87 43 06 3d 12 71 9c bd
       -0.00062165706 -0.02571988 0.032779243 -0.07638754
000010 6e 6c 84 3b 4c d0 c9 bc 34 89 24 bd a9 90 d3 bb
       0.004041246 -0.024635457 -0.04016991 -0.006456454
000020 cb 1c cc bc 12 35 18 3d 72 60 0a bd 8e 67 b6 3c
       -0.024916073 0.037159987 -0.033783384 0.022266176
000030 ec 92 61 3d 99 bb 36 3d c2 70 22 3c 19 7a 57 3d
       0.055071756 0.0446125 0.009914579 0.052606676
000040 f3 2b b6 3c 25 66 6c bd 23 29 96 3d 89 6e 9c 3d
       0.022237753 -0.0577146 0.07332065 0.076382704
000050 3a 5f 9d bc 64 84 6f bd 66 4e 86 bd 68 6d ad bd
       -0.019210447 -0.058475867 -0.06557922 -0.08468133
000060 b7 9d 52 bd a7 14 60 bb da 00 34 3c f9 54 83 3d
       -0.05141994 -0.0034191997 0.010986531 0.064126916
000070 2c ad 85 bc 73 77 ad 3d 16 74 aa bb 5a d1 1c 3d
       -0.016317926 0.08470049 -0.005201827 0.03828559
000080 f4 af 40 3d 01 d8 b8 bc d3 15 88 3d 08 0f 06 3d
       0.047042802 -0.022563936 0.06644788 0.03272918
000090 34 a3 63 3d a1 2e 9c bd b7 57 cd 3b 0e 8f 5e 3d
       0.055575565 -0.07626081 0.00626656 0.054335646
0000a0 81 bd 8d bd 46 9a a3 bd b9 c0 6d 3d a3 0c ac bd
       -0.069209106 -0.0798841 0.058045123 -0.08400848
0000b0 60 ad 51 3c f6 91 0f bd 51 5c 95 bd 2d ac 42 3d
       0.0127976835 -0.03505131 -0.072929986 0.04752748
0000c0 2b 43 91 3c 4b dd 2d 3d 9a d1 46 bd 05 cf c3 bd
       0.017732223 0.04244737 -0.048539735 -0.0956097
0000d0 83 04 24 3c 09 8f a9 3d 97 dd 50 bc 9f 70 4c 3d
       0.010010841 0.08279235 -0.012748144 0.04991209
0000e0 bf a9 b8 bc ee 7d a3 bd 4b 13 87 bc 64 e7 5b 3c
       -0.022541879 -0.079830036 -0.016488692 0.013421867
0000f0 f3 9e 9a bd fd e5 37 3b 96 e9 aa 3d 4e c5 5d 3d
       -0.075498484 0.0028060668 0.08345334 0.054143243
000100 2f 49 b2 bd f0 2a af 3d d5 b7 0d 3d 84 9a b3 3d
       -0.08705365 0.085531116 0.034599144 0.08769706
000110 3d 10 0a bc d9 0c 87 3d cf 01 3e bd e6 af 82 3d
       -0.008426723 0.06594247 -0.046388444 0.06381206
000120 a9 55 50 3c e1 ba f0 bc 35 bf 7e 3d ad a1 d6 3c
       0.0127157355 -0.029385986 0.062194068 0.02620014
000130 60 7f 80 3d bb fd 00 3d 4b 63 32 bd 57 9c 4b 3d
       0.06274295 0.031491976 -0.043551724 0.049709644
000140 2c 9c 85 3d 48 31 77 3d e5 cb 9b 3d ee 6c 80 3d
       0.06523928 0.060349733 0.07607249 0.06270777
000150 42 8c e1 3c 5f 3f 70 3d c5 ac 02 3d f4 42 19 3d
       0.0275327 0.058654185 0.031903047 0.037417367
000160 d7 20 de 3c fe 6d 9e bc 99 6f 9d 3c 02 63 9a 3c
       0.027115269 -0.019339558 0.019218253 0.018846039
000170 34 97 89 bd 53 e3 37 3d 24 8f 91 3c f5 db 61 3d
       -0.06718293 0.044894528 0.01776845 0.055141408
000180 85 8b 8e 3c 65 90 6d 3c 93 62 8f bd 88 83 90 3d
       0.017400512 0.014499758 -0.070012234 0.070563376
000190 e1 be ac bd e7 c4 7d 3d 94 9e 46 3d ff cb 2a 3d
       -0.08434845 0.06195536 0.048491076 0.041698452
0001a0 a8 b7 ad 3d 1c f2 dd bc fe 61 f1 3c 21 d7 a5 bd
       0.08482295 -0.027092986 0.029465672 -0.08097673
0001b0 43 d5 a8 3c 84 7b 9a bd e8 e1 bc bc 10 ad 82 3c
       0.020609504 -0.0754309 -0.02305694 0.015951663
0001c0 95 f2 16 3d da 42 91 3d 1a a8 a1 3d d5 e7 ca bc
       0.036852438 0.07092829 0.07893391 -0.02476875
0001d0 97 3c 9a 3b c4 73 f9 bb e7 0d 8a bd 70 c4 35 3d
       0.00470693 -0.0076126773 -0.06740933 0.04437679
0001e0 72 d5 a5 3d 9b f3 09 3d 3a d5 c0 3c 3e ad 81 3d
       0.08097352 0.033679586 0.023539174 0.063318714
0001f0 6f 34 d3 bc 8f 0c 74 3d 99 60 b6 bd 14 00 87 3d
       -0.025781838 0.05958229 -0.08905143 0.06591812
000200 50 82 84 3d 64 d6 14 bd 67 2c 5a 3c 03 cf 2e 3d
       0.06470168 -0.03633727 0.01331625 0.04267789
000210 ed 29 c9 bd 2c 75 16 bd 2e 3f 70 bd a0 33 56 3d
       -0.0982245 -0.036732838 -0.058654003 0.052295327
000220 c6 e4 64 bd bb 8e 57 bd d2 48 86 bb af f7 c0 3b
       -0.055882238 -0.052626353 -0.0040980363 0.005888901
000230 8c 4c ec 3c 94 af 96 3d 5c ee 88 3d f4 ef 0e bc
       0.028845094 0.073577076 0.066860884 -0.0087242015
000240 be 9a 52 bd 2d 94 35 3d 6d 3b 65 bd f4 e1 b6 3d
       -0.051417105 0.044330765 -0.055964876 0.08929816
000250 d3 2f c4 3d 6a c6 8b bd 29 ae de 3c 7d 42 51 bd
       0.09579434 -0.06824954 0.027182655 -0.0510888
000260 68 81 c6 3d 79 87 2e 3d 19 0b 81 bc c1 79 7d bc
       0.09692651 0.042609666 -0.015752362 -0.015470923
000270 44 77 0b 3d be ba b8 3c aa ab c4 3c 02 c2 c5 3d
       0.034049287 0.022549983 0.024007637 0.09656145
000280 c0 b3 63 bd 22 e3 81 bd cd 39 81 bd 5a bf da 3c
       -0.055591345 -0.0634215 -0.06309853 0.026702572
000290 35 92 57 3d f0 15 46 3d 06 22 9c 3c 3e 42 a5 bd
       0.05262967 0.048360765 0.019059192 -0.08069275
0002a0 ee 2e 78 bd 84 0d b8 3d fb 5c 75 bc 09 b7 c9 3d
       -0.06059163 0.08986953 -0.014975782 0.09849364
0002b0 1f 78 c9 3d 87 07 6e bc 6c c2 df bc d9 fe ab 3c
       0.098373644 -0.014528162 -0.027314387 0.020995544
0002c0 2b 30 44 3d da 47 52 3c ff 34 5e 3d fe bb 84 3b
       0.0478975 0.012834514 0.05424976 0.0040507307
0002d0 0b 35 75 3d 33 85 99 bd d9 b9 c9 bd 3c 73 86 3d
       0.05986504 -0.07496109 -0.09849901 0.06564948
0002e0 2e 0a 8a 3c b2 a6 93 bb ff 19 46 bc a4 0c 23 bd
       0.016850557 -0.0045059556 -0.012091159 -0.039806977
0002f0 92 55 8a 3d c6 b8 61 3d 48 5e 80 bd 79 6f 1e 3a
       0.067546025 0.055107854 -0.06267983 0.00060438324
000300 dc e4 54 bc 1a 85 94 bd e5 a4 27 3c 9a b0 a3 bd
       -0.012994017 -0.072519496 0.010232185 -0.079926684
000310 30 09 84 bd 1a 7a aa bd 97 b4 d2 3c 83 97 5b 3d
       -0.06447065 -0.0832407 0.025720878 0.05361129
000320 3c c8 08 3d 46 ad 66 bd 08 25 25 3d 3d fd 18 bd
       0.033394083 -0.05631759 0.04031852 -0.03735088
000330 eb 77 1a b9 cc 81 89 bd 56 00 8a bd d2 53 56 3d
       -0.00014731257 -0.0671421 -0.06738345 0.05232603
000340 87 ae 2e bc 9b 10 89 3d b8 f2 75 bc a1 7d 58 bb
       -0.010661728 0.0669262 -0.015011482 -0.0033033865
000350 bd cc 8c bd d8 39 65 3d 13 4c 0b 3d f9 17 bb 3c
       -0.06874988 0.055963367 0.034008097 0.02283858
000360 ce 09 96 3b d1 e5 bd 3b d2 4b 8c 3d 0d c6 67 3d
       0.0045788055 0.0057952185 0.06850399 0.05658536
000370 3c 67 be bd 9a a6 62 bd 9e b6 a4 3d ab 89 87 3d
       -0.09297034 -0.055334665 0.08042644 0.06618055
000380 72 5d 39 bd 8b 8f 8e bc 38 fe 76 3d e0 67 11 bd
       -0.045255132 -0.017402431 0.060301036 -0.035499454
000390 cf 5f 3c bd 8b 7c e4 bc 2b 45 2d 3d fa 67 8f bd
       -0.045989808 -0.027891418 0.04230229 -0.07002254
0003a0 19 96 66 bc 41 82 84 3d d0 b9 ba 3d b1 90 f0 bc
       -0.014073872 0.064701565 0.09117472 -0.02936587
0003b0 9d 46 bd bd 4b 86 57 bd 6c 81 9a 3c 65 6a 3b bd
       -0.09241984 -0.052618306 0.018860541 -0.045755763
0003c0 35 f5 47 3c 38 43 47 3d 79 95 45 3b 26 de db 3c
       0.012204458 0.04864809 0.0030148907 0.026839327
0003d0 13 c2 ed 3c 50 b1 76 3d 56 c2 51 bd b8 14 dd 3c
       0.029023206 0.060227692 -0.051210724 0.026987419
0003e0 2a 51 f8 3c f4 1b 9a bc c4 44 bf 3c ce dc d1 3c
       0.03031214 -0.018812157 0.02334822 0.025617983
0003f0 8d c1 67 3c 04 5e 31 bd b7 e3 33 bd 32 ca 10 bd
       0.014145267 -0.04330255 -0.043918338 -0.03534908

scene_encoder.0.bias f4 [64]
000000 f3 6b 5e bd 94 61 81 bc 85 b6 a9 3d 50 3c 3a bc
       -0.054302167 -0.0157936 0.08286766 -0.011366919
000010 69 3e 54 bd 8a 6a 9a ba e3 bf 1e bc 5b 34 57 3d
       -0.05181733 -0.0011781019 -0.009689304 0.052540164
000020 58 6f dc bc 7e 6d 16 3d 52 f9 5f 3d 8c c6 41 3d
       -0.026908562 0.036725514 0.05468113 0.04730849
000030 95 52 80 3d 26 de a0 bd 5c 51 19 bd d9 ad 0a 3d
       0.06265751 -0.078548715 -0.037431106 0.0338572
000040 a4 8f 16 bc 7b ce 9b bc e1 bf 05 3b 75 67 2e 3d
       -0.00918952 -0.019019356 0.0020408558 0.042579133
000050 7d 68 76 bd aa da 99 bc c7 b2 53 3d c8 5c c5 3c
       -0.06015824 -0.018781025 0.051684167 0.024092093
000060 ae c5 30 3d e7 47 48 3c 9c 25 ae bd e2 f9 e8 3b
       0.043157272 0.012224174 -0.08503267 0.0071098665
000070 40 3d a6 bd 92 73 9e bc ac 3c 41 bd 1d 6a b4 bc
       -0.08117151 -0.019342218 -0.047177 -0.022023255
000080 22 ef ce bb 56 b7 f3 bc 5c a5 89 bd 7f a4 55 bd
       -0.006315128 -0.029750507 -0.06720993 -0.05215883
000090 fe a0 7f bd 5a 35 9e 3d 54 69 9e bd 68 07 55 3b
       -0.062409393 0.0772502 -0.077349335 0.0032505635
0000a0 26 28 83 3d 93 c0 a8 3c 30 3c a2 3d 39 56 7c 3d
       0.06404142 0.020599639 0.07921636 0.061605666
0000b0 d8 2c 83 3d 3c 33 88 3d 0d 91 58 bd 55 8d 89 bd
       0.06405038 0.06650397 -0.052872706 -0.0671641
0000c0 84 31 96 3d 90 d4 d0 bb df 65 8e 3d a6 88 d4 3b
       0.07333663 -0.0063729957 0.06953024 0.0064860163
0000d0 2d 8d 50 bd a8 38 c1 3c 1e 62 6a 3d 32 f2 2d bd
       -0.050915886 0.023586586 0.057222478 -0.042467304
0000e0 d7 16 71 bd ef 6e fc bc a3 4b 72 ba 82 1b 6b 3d
       -0.058859672 -0.030814616 -0.0009242838 0.05739928
0000f0 f0 20 0e 3d ff 0e 7e 3d 2e fe 8f 3d 8d e2 ae bd
       0.03469938 0.06202602 0.07030903 -0.08539305

scene_encoder.2.weight f4 [32, 64]
000000 f7 ac 68 bd 6c 25 05 3d b6 9d ed 3d 97 de 5d 3d
       -0.056805577 0.03250639 0.116023466 0.054167356
000010 40 35 fc 3d 0e 64 47 3d 99 27 f1 3c 8b 7e ed bc
       0.12314844 0.048679404 0.029437827 -0.028991004
000020 1f f3 d7 bd 46 b8 ca bd 9d 14 8e 3d b4 bd 25 3c
       -0.105444185 -0.098984286 0.069375254 0.0101160295
000030 20 5a 46 bd b4 78 b4 bd 4e 43 ca bd db ac e6 3d
       -0.048425794 -0.08812085 -0.098761186 0.11263438
000040 20 1b 9f bc 3e 21 89 bd 90 45 f3 bc 96 7d 65 bc
       -0.019422114 -0.066957936 -0.029696256 -0.014006993
000050 74 9a a7 bd 6b 7c d1 3d 58 0c 4c bd a8 95 24 3b
       -0.081837565 0.10228809 -0.04981646 0.0025113616
000060 8a 8a 81 bd 6d 77 bd 3d 27 3b 3b 3d 46 44 80 3d
       -0.06325252 0.09251294 0.04571071 0.06263022
000070 b5 91 39 bd 01 db c6 3c 69 7c 6a bd 9c 80 fd 3d
       -0.045304973 0.024274351 -0.057247553 0.12378046
000080 43 94 33 3d 64 57 e6 bd 40 84 60 bc b4 3d 6b 3d
       0.043842565 -0.11247137 -0.013703406 0.05743189
000090 a8 d2 f1 3d ca 5a a0 3d 6d a0 a7 bb a3 05 c7 3d
       0.118077576 0.07829817 -0.00511556 0.09717872
0000a0 a0 67 8d 3d 4b d7 36 3d 9c 06 f2 3c 95 ed 50 3d
       0.069045305 0.044638913 0.029544167 0.051007826
0000b0 fe fe cb bd d1 35 85 bc c7 6f 9d bc 28 ef a1 3c
       -0.09960745 -0.016261013 -0.019218339 0.019767359
0000c0 14 a5 ab bc 33 3e a2 3c fc 76 8b bd 6f b3 e5 3d
       -0.020952739 0.01980505 -0.06809804 0.11215865
0000d0 0f eb 8c bb 81 53 48 3d 23 5a 5e bd c5 86 5f bd
       -0.004300482 0.04890776 -0.05428518 -0.054571886
0000e0 3d 68 24 ba b8 f7 a7 bd 72 78 88 3d e3 95 ac 3d
       -0.0006271636 -0.082015455 0.06663598 0.08427026
0000f0 9d 5d a7 bd d8 6f be 3c 1f 50 86 bd 8f 3a c9 3d
       -0.08172152 0.02324669 -0.06558251 0.09825622
000100 d6 ea f3 3c f8 3f d8 bd 98 e2 f7 3c 8d 9f a8 bd
       0.029775064 -0.10559076 0.030259416 -0.08233557
000110 26 5c 1c 3c 95 f3 ed 3d 4e 2f cc 3d d7 f8 69 3c
       0.009543454 0.11618725 0.0996996 0.014280519
000120 c0 18 ca 3c d1 5b 4e bc a7 d4 5f bc bf c1 81 bd
       0.024670005 -0.012595133 -0.01366154 -0.06335782
000130 40 f2 be bb f4 e8 2d 3d 06 8c b1 3d 4b 49 e6 bd
       -0.0058272183 0.04245849 0.086692855 -0.11244448
000140 7e d5 f7 bd e8 7c c8 3d fc 15 f6 bd 32 72 ad bc
       -0.12101267 0.09789449 -0.12015912 -0.021172617
000150 2e a0 cb bd 70 1e ea bc 7d 34 04 bd 87 76 c8 bd
       -0.09942661 -0.028578967 -0.03227662 -0.09788232
000160 28 66 55 bd 89 e1 02 3d f6 5c 89 3d d0 27 cb bd
       -0.052099377 0.03195337 0.06707184 -0.09919703
000170 75 81 d2 bd bf d0 4f 3d 0e 27 6b 3d aa 68 87 bd
       -0.10278598 0.050736185 0.057410292 -0.0661176
000180 13 74 01 3e f9 03 72 bd 58 2e c6 3d 24 f7 8d 3d
       0.12641935 -0.05908582 0.09676808 0.06931904
000190 7a 59 95 bd de f8 db 3d 31 cb a9 3c 98 8a 4f bd
       -0.07292457 0.10740827 0.020726772 -0.050669283
0001a0 df b4 05 bd f3 c0 34 3d ea 78 ef 3d a9 3c 96 3c
       -0.032643195 0.044129323 0.116929844 0.018339472
0001b0 bc 69 9b 3d 9a dd f4 bd df d6 66 bd bb 6e 16 bd
       0.075885266 -0.1195633 -0.05635726 -0.036726695
0001c0 56 56 cb bd 88 d8 a3 3d 48 d3 eb 3d d0 a0 35 3c
       -0.09928577 0.080002844 0.11514908 0.011085704
0001d0 f9 9c 5d bc b5 c9 08 bb 50 a0 89 bc 37 81 95 3d
       -0.013526195 -0.002087218 -0.016800076 0.073000364
0001e0 f1 84 5e bd a8 9b 91 3c 37 e2 21 3d 54 71 95 3c
       -0.054326 0.017774418 0.039522376 0.018242516
0001f0 d5 ff d6 bd 4c fe db 3d 8d c5 b0 bc ea 48 25 3d
       -0.10498015 0.10741863 -0.021578575 0.04035274
000200 6a ad 63 3c 3b ab 5d bd 00 dd be ba f1 67 b1 3d
       0.013896326 -0.054118376 -0.0014561713 0.086624034
000210 d8 04 14 3b 12 c5 64 3d de 31 9c 3d 77 55 ae 3d
       0.0022585895 0.055852003 0.07626699 0.08512395
000220 77 f4 a5 bd ba b9 0c bb 97 da 69 3c 68 f5 71 3d
       -0.081032686 -0.0021473006 0.014273307 0.05907193
000230 10 e4 9d 3c 10 71 d0 3d d2 8d 7f bd 62 54 3d bd
       0.019273788 0.10177815 -0.06239111 -0.04622305
000240 28 4e 93 bc a8 d1 57 bd 80 dc 0e bd d0 4f 9e bb
       -0.017981604 -0.05269018 -0.034878254 -0.0048312917
000250 8c 77 8a 3d 2a e8 17 bd 3b 97 58 bc 91 77 b0 bd
       0.06761083 -0.037086643 -0.01321965 -0.086165555
000260 11 50 cd 3d e1 03 ca bd a9 a5 98 3d 63 fe ba 3b
       0.10025037 -0.09864021 0.07453472 0.005706595
000270 5f c9 d2 bd 19 ef 2a bd 6e 60 a6 3b 92 8f a7 3d
       -0.10292315 -0.041731928 0.0050774133 0.08181681
000280 ce 72 dc bd 03 5c 33 bc 44 da e0 bd 52 14 c1 bd
       -0.10764085 -0.01094723 -0.10979131 -0.09427704
000290 d5 89 da 3b be 2a 06 be a7 60 73 bd c9 c3 10 be
       0.006669263 -0.13102242 -0.059418347 -0.14137186
0002a0 36 1f fa b9 80 1f 53 bb b4 46 f3 bb 9f 1d ab 3d
       -0.0004770697 -0.003221482 -0.0074242 0.08355259
0002b0 64 81 c7 bd 84 42 fb 3c c8 94 7f 3b c6 81 9d bd
       -0.09741476 0.030671366 0.0038998593 -0.07690768
0002c0 c3 c2 87 3d c4 dd cb 3d 89 92 b3 3c 0b b5 c4 bd
       0.06628945 0.09954408 0.02192046 -0.09604844
0002d0 98 2b b3 bd 8b 99 0e bd 0e fc e1 bd 59 af 28 bd
       -0.08748549 -0.0348144 -0.11034404 -0.04118285
0002e0 f2 46 ba 3b 5c 45 ec 3d 1b 4d 72 3d 7c 7c 51 3d
       0.005684727 0.11536667 0.059155565 0.05114411
0002f0 d1 93 01 be 60 60 e2 3c a9 74 c6 3d 3b a0 8e 3d
       -0.12654044 0.027633846 0.0969022 0.06964155
000300 62 d8 27 bd 70 2b ee 3d ae 74 fe 3d b5 38 a6 bd
       -0.040977843 0.11629379 0.12424599 -0.08116285
000310 a8 b3 e5 bd d7 36 94 3d d4 94 3c bc b7 ad 08 bd
       -0.11215907 0.07237022 -0.011510093 -0.033368792
000320 f1 ad 56 bd d2 75 72 bd b4 66 e7 bc 83 d3 d2 3c
       -0.052411977 -0.059194393 -0.028247215 0.025735622
000330 70 34 ee 3d 30 54 78 bd 14 2f ea bd dd 60 93 3d
       0.116310954 -0.060627162 -0.11434761 0.071962096
000340 7e af bd 3d 0a fd cb 3c bc 2e 07 bd 59 2e d7 3d
       0.09261988 0.024900932 -0.033003554 0.10506887
000350 18 25 c7 3c a7 d1 c3 3d 22 a7 bc 3d 9b e2 1a bd
       0.02430968 0.095614724 0.092115656 -0.037813764
000360 4a a7 4e 3c 80 85 66 3c fb 76 06 3e 5a b5 2b bc
       0.012613127 0.014069915 0.13131325 -0.010480249
000370 13 fd 30 3d 9b 3a f9 bd 41 23 bd 3d d1 17 4f 3d
       0.0432101 -0.12169381 0.0923524 0.050559822
000380 08 29 da bd 0e 05 ec bd 1b 70 13 3d 4c 65 b9 3d
       -0.10652357 -0.115244016 0.035995584 0.09052524
000390 7a 80 30 3d db e2 27 3c b1 b0 b2 bd 2f 40 a6 3d
       0.043091275 0.010246958 -0.087251075 0.08117711
0003a0 44 48 e7 3d a1 57 e4 bd c6 d0 f6 bc 05 2a 38 3d
       0.112930804 -0.111495264 -0.030128848 0.044961948
0003b0 08 6e 38 3b ed 5a e7 bb 86 a7 8d 3d 70 d1 fc bc
       0.0028141756 -0.0070603997 0.06916718 -0.030861586
0003c0 a0 df ef 3d 32 33 d5 3d 18 37 b1 3d 7f e8 55 3c
       0.11712575 0.10410155 0.086530864 0.01305592
0003d0 18 b1 fa 3d 82 c5 e9 3d e6 9f 86 bd 1a 8d 85 3d
       0.12240809 0.11414625 -0.06573467 0.065210536
0003e0 6e d9 dc 3d b5 42 88 3b f4 67 a2 3d aa 8a e1 3d
       0.10783659 0.0041583427 0.07929984 0.11012776
0003f0 eb 61 e2 3d 6e 65 bf bd 9b e2 bc bd d9 90 f2 3c
       0.110538326 -0.09345518 -0.09222909 0.029610084

scene_encoder.2.bias f4 [32]
000000 d6 ab 69 bd 85 4c 29 bd 36 d0 05 3d 85 d7 0f bd
       -0.05704864 -0.04133274 0.03266927 -0.035117645
000010 2c b2 b4 3d f2 ee a2 bd 6e 24 c7 3c 6d 5a 3a 3c
       0.08823046 -0.079557315 0.024309363 0.011374098
000020 4c af e7 bd 2c 5f a1 3d 22 11 55 bd 6e d3 da 3d
       -0.11312732 0.07879481 -0.052018292 0.10684858
000030 e1 ac 24 bd 32 c8 c9 bd 08 78 ba 3b 4e 5e e2 bc
       -0.040203933 -0.09852637 0.0056905784 -0.027632859
000040 71 5d 0c bd 74 cf aa bd 1e 04 d3 bc 06 9e d8 bc
       -0.0342688 -0.0834035 -0.0257588 -0.026442539
000050 12 e9 a7 bd d0 68 d0 ba ee 7a 5e 3a b9 9e 54 3b
       -0.081987515 -0.0015900377 0.0008486946 0.003244324
000060 68 98 9a 3c a9 f5 39 bd 9d 8c 29 3d 06 0f c1 3d
       0.018871501 -0.045400295 0.041393865 0.094266936
000070 89 2b 6d 3b b2 1b 09 3e 26 ca b9 3d 34 0a e3 3d
       0.003618928 0.13389471 0.0907176 0.110859305
